generator.pth (torch, 66923 bytes, 7 tensors)

label_emb.weight f4 [3, 3]
-0.042742576 -0.40191677 -0.9256162 -0.5744129 0.099832155 -0.04326564 0.8270034 -1.3479314
-2.219982
00000000: d712 2fbd 09c8 cdbe 2ff5 6cbf b90c 13bf
00000010: cd74 cc3d 5037 31bd 7fb6 533f 0489 acbf
00000020: 2f14 0ec0

model.0.weight f4 [64, 103]
-0.012755823 0.016709194 0.019350452 -0.026845934 -0.011242255 -0.034474038 -0.011510855 -0.02262385
-0.0049594548 0.004901816 -0.0022493773 -0.008132372 0.019908283 -0.040034145 0.033517133 -0.027959857
-0.034920704 -0.01809249 -0.021850593 0.00018986654 0.027749654 -0.0039756456 0.018094862 0.019022321
-0.025496554 0.018502848 0.019698309 0.022536796 -0.018193178 0.025970329 0.022218054 0.0049958196
0.001421598 0.000631512 0.014428516 -0.004131087 0.030531114 -0.002435757 0.027772475 -0.019905886
-0.023412507 0.012774945 0.0017009325 0.005924276 -0.034931522 0.024104733 -0.03620043 0.021337828
0.017148208 0.0028129087 -0.031137887 -0.011387151 0.023541579 -0.018873665 -0.02381111 0.015966687
0.023996862 0.0059631495 0.012495483 -0.013692283 -0.011499916 -0.0297335 0.03564233 -0.023946615
-0.021265844 -0.018748509 -0.0010979093 -0.019241512 -0.00012381109 -0.00086043 0.024336103 0.024188023
-0.014474369 0.003821878 -0.028868891 0.010274778 -0.005737824 -0.052052133 -0.019734792 -0.028913628
-0.018495621 -0.0065132934 0.03055014 0.007138879 -0.0044094054 -2.3603221e-05 0.019020678 0.025427364
-0.045764096 -0.0042524296 -0.012491366 -0.021445481 0.013149105 0.0070289327 -0.011666967 0.014973762
0.0020095794 -0.032637805 -0.014769019 0.029230554 0.36321816 -0.0692391 -0.1435993 0.006147632
0.016861241 0.0020349564 -0.03584882 -0.028419193 0.0055466057 0.014767341 -0.005100296 0.0074691433
-0.036775265 0.013871047 -0.0058024083 -0.02324717 -0.004382768 -0.021882826 -0.011363094 0.017948942
0.00021409123 0.033426687 -0.009671388 0.002827629 -0.006968719 -0.01610584 0.0099838795 0.023964139
0.021098258 0.009538642 -0.034690708 0.0010727212 -0.022589706 0.009206456 0.018507082 -0.02180269
0.012485585 0.025154475 -0.0053198575 0.00048630932 0.0015317531 -0.008274659 0.023159046 -0.033952743
-0.022009673 0.0077505074 0.0063125854 0.005977561 0.024425274 0.025433214 0.018155836 0.008883766
0.009173114 0.0074895406 -0.0018580855 -0.0052055987 -0.03347962 -0.018596912 -0.004414212 -0.0106102675
0.02777473 -0.0034335826 -0.018057575 -0.03827587 -0.007902108 0.0393067 -0.004743774 -0.027518073
0.022372382 -0.0011221231 0.008124994 0.018672405 -0.016433699 -0.011712785 -0.032126363 -0.0127769895
-0.008366467 -0.01475836 -0.013849296 0.015574344 -0.009880452 0.0056044506 0.013519084 0.010144181
0.0041389307 -0.020480383 -0.020421414 -0.0021409104 -0.011197375 0.0029452574 -0.020380924 0.015968395
0.008812012 -0.016268307 -0.01109978 0.008665751 0.009133724 0.018608803 -0.018875677 -0.0009978509
0.0042057587 -0.004380507 -0.019842036 0.5783234 -0.20929871 -0.11859357 0.019002281 -0.057003055
-0.025964472 0.045364574 0.0212021 0.068037815 0.010266538 0.057109978 0.0017607198 -0.0034952224
-0.026575236 -0.026269985 0.010322084 0.013296308 0.008075961 0.025939843 -0.0049795024 0.017353894
0.048466977 0.023662997 0.04573668 0.077204205 -0.036923185 0.045195628 -0.0034731943 0.031789616
0.014871864 -0.0056591844 0.030966025 -0.062046677 0.019848252 -0.046744823 -0.038597006 -0.037639976
-0.03768739 -0.009699559 -0.044823043 0.044040278 -0.045486923 0.033782363 -0.041351143 -0.035132542
0.024668131 0.05678552 -0.00060689537 0.075220905 0.049710624 -0.031749003 0.018236736 0.05096751
00000000: cdfd 50bc b8e1 883c d784 9e3c 01ec dbbc
00000010: 6f31 38bc a634 0dbd 0698 3cbc a755 b9bc
00000020: ec82 a2bb 6a9f a03b 4a6a 13bb a43d 05bc
00000030: b216 a33c d8fa 23bd 4349 093d 120c e5bc
00000040: 0309 0fbd b436 94bc 0400 b3bc e916 4739
00000050: 3e53 e33c 2246 82bb ad3b 943c b3d4 9b3c
00000060: 26de d0bc 4993 973c 595e a13c 169f b83c
00000070: dc09 95bc babf d43c a302 b63c f9b3 a33b
00000080: ea54 ba3a 0e8c 253a 9565 6c3c 125e 87bb
00000090: 631c fa3c 39a1 1fbb 1a83 e33c ab11 a3bc
000000a0: 96cb bfbc 014e 513c d3f1 de3a 6e20 c23b
000000b0: 5b14 0fbd 4a77 c53c e746 14bd abcc ae3c
000000c0: 667a 8c3c c758 383b e214 ffbc 2c91 3abc
000000d0: 45da c03c f29c 9abc 840f c3bc 92cc 823c
000000e0: 1195 c43c 8666 c33b dbb9 4c3c 9955 60bc
000000f0: 256a 3cbc ab93 f3bc b1fd 113d b12b c4bc
00000100: b535 aebc 7996 99bc b9e7 8fba 60a0 9dbc
00000110: 49d3 01b9 7b8e 61ba 825c c73c f625 c63c
00000120: e725 6dbc 7978 7a3b 747e ecbc 8b57 283c
00000130: 5b04 bcbb 9e34 55bd dcaa a1bc 46dc ecbc
00000140: 2184 97bc 776d d5bb 4a44 fa3c 42ed e93b
00000150: c67c 90bb 88ff c5b7 41d1 9b3c 0c4d d03c
00000160: 2273 3bbd f757 8bbb 96a8 4cbc 6fae afbc
00000170: 586f 573c f652 e63b ce26 3fbc 8354 753c
00000180: 26b3 033b 38af 05bd c1f9 71bc ea74 ef3c
00000190: bbf7 b93e 3bcd 8dbd b20b 13be 1372 c93b
000001a0: 9620 8a3c e75c 053b 36d6 12bd 5ecf e8bc
000001b0: 4dc0 b53b b8f2 713c 6220 a7bb b7bf f43b
000001c0: a9a1 16bd 6343 633c 2122 bebb d970 bebc
000001d0: 539d 8fbb 9d43 b3bc 452c 3abc a909 933c
000001e0: ad7d 6039 6cea 083d be74 1ebc be4f 393b
000001f0: da59 e4bb 65f0 83bc 6d93 233c 7150 c43c
00000200: 41d6 ac3c f747 1c3c d817 0ebd 8d9a 8c3a
00000210: 0c0e b9bc add6 163c 2a9c 973c 8e9b b2bc
00000220: 5790 4c3c c210 ce3c 3352 aebb 55f7 fe39
00000230: 1bc5 c83a 6f92 07bc 0ab8 bd3c 0812 0bbd
00000240: a14d b4bc f8f7 fd3b ced9 ce3b 6bdf c33b
00000250: 8317 c83c 5159 d03c 8cbb 943c 378d 113c
00000260: d44a 163c d26a f53b 018b f3ba ba93 aabb
00000270: ed21 09bd 8d58 98bc 18a5 90bb b0d6 2dbc
00000280: d587 e33c f505 61bb 7bed 93bc 29c7 1cbd
00000290: d877 01bc 1000 213d a971 9bbb 956d e1bc
000002a0: 4946 b73c 3414 93ba b21e 053c dff6 983c
000002b0: f79f 86bc fbe6 3fbc ef96 03bd 9456 51bc
000002c0: 8213 09bc 0ccd 71bc 28e8 62bc 892b 7f3c
000002d0: 9fe1 21bc 8aa5 b73b 267f 5d3c c733 263c
000002e0: de9f 873b 7ac6 a7bc cf4a a7bc 844e 0cbb
000002f0: 3275 37bc 3805 413b e5f5 a6bc 27d0 823c
00000300: 4260 103c 1d45 85bc dadb 35bc cbfa 0d3c
00000310: 9da5 153c 7d71 983c 2aa1 9abc 52ca 82ba
00000320: 76d0 893b 5b8a 8fbb c48b a2bc 010d 143f
00000330: 6752 56be 30e1 f2bd acaa 9b3c 097c 69bd
00000340: 72b3 d4bc 34d0 393d 07b0 ad3c 6957 8b3d
00000350: fb34 283c 27ec 693d f4c7 e63a 1a10 65bb
00000360: 4fb4 d9bc 2734 d7bc f51d 293c c2d8 593c
00000370: 0951 043c cb7f d43c 182b a3bb c129 8e3c
00000380: 4f85 463d e7d8 c13c 6356 3b3d 3d1d 9e3d
00000390: c43c 17bd 0d1f 393d 889e 63bb d435 023d
000003a0: 1ea9 733c ae70 b9bb 76ac fd3c a824 7ebd
000003b0: cd98 a23c 8077 3fbd e517 1ebd 602c 1abd
000003c0: 185e 1abd e6ea 1ebc 5e98 37bd 9463 343d
000003d0: 7f50 3abd 605f 0a3d d15f 29bd 24e7 0fbd
000003e0: d214 ca3c ef97 683d 0f18 1fba 6b0d 9a3d
000003f0: 5e9d 4b3d 3e0b 02bd 3565 953c 4fc3 503d

model.0.bias f4 [64]
-0.19170472 -0.14966565 0.08794828 -0.02755488 -0.06423268 -0.17125495 0.1564019 -0.2001219
0.17397307 0.08775921 0.121590376 -0.107343584 -0.15710767 -0.17480272 -0.034313537 0.050360147
-0.06639794 0.09916986 0.20767047 0.048785985 0.1759997 -0.18679796 0.1458699 -0.0031553241
0.08749312 -0.10042 -0.16709265 -0.0130069405 0.13581455 -0.017669972 -0.22722799 -0.17065789
-0.062276244 0.029462961 -0.14984967 -0.018933125 -0.008313319 0.13271503 -0.076626204 -0.070046596
-0.13714503 -0.08353874 -0.2224975 -0.18268561 0.1727421 -0.14795004 0.016904425 0.15803088
-0.15824102 0.122193806 -0.16914262 -0.0034055652 -0.09810165 -0.17610663 0.14445178 -0.09051792
-0.16481754 -0.023898302 0.2198566 -0.055829164 0.15931353 0.0039828713 0.06045127 -0.011044102
00000000: 3e4e 44be f441 19be 3a1e b43d c6ba e1bc
00000010: 6c8c 83bd 755d 2fbe d227 203e c1ec 4cbe
00000020: ff25 323e 1abb b33d 6004 f93d f4d6 dbbd
00000030: d5e0 20be 7cff 32be 5a8c 0cbd 7146 4e3d
00000040: a5fb 87bd 9119 cb3d 91a7 543e d0d3 473d
00000050: 4439 343e f747 3fbe eb5e 153e 8ec9 4ebb
00000060: 982f b33d 00a9 cdbd 561a 2bbe 101b 55bc
00000070: f812 0b3e 9ec0 90bc 74ae 68be f1c0 2ebe
00000080: 6015 7fbd 4f5c f13c 3172 19be a419 9bbc
00000090: 9634 08bc 73e6 073e 33ee 9cbd 9774 8fbd
000000a0: bf6f 0cbe 5c16 abbd 62d6 63be f011 3bbe
000000b0: 4ee3 303e 3780 17be 267b 8a3c d9d2 213e
000000c0: ef09 22be bf40 fa3d b933 2dbe e72f 5fbb
000000d0: 85e9 c8bd 4c55 34be 2beb 133e 7661 b9bd
000000e0: eec5 28be 5fc6 c3bc 1722 613e 1fad 64bd
000000f0: 1623 233e bf82 823b c09b 773d 52f2 34bc

model.2.weight f4 [128, 64]
0.12650558 0.09086749 -0.097012475 0.019794416 0.10426763 -0.061435215 -0.044630483 -0.025802728
0.05759942 0.005289749 0.0141274985 0.15994172 0.043635104 0.09699438 0.09775746 -0.011307673
0.047616065 0.031214552 0.11992913 0.071631275 0.039785836 -0.027156603 0.12532893 -0.02662548
-0.09924957 -0.02480433 0.06458796 -0.046089604 0.035775628 -0.0114348475 -0.010742814 0.13236758
-0.080824524 0.030793738 -0.020359553 0.062052485 0.08933667 -0.12585016 -0.07833669 -0.09981727
-0.04150971 0.15778467 -0.07060865 0.029613573 0.08824425 0.15919928 0.023850441 0.09002875
0.12693927 0.036558278 0.06133047 0.091381714 -0.059848417 0.10845747 0.08254024 -0.04397224
0.10818812 -0.07077934 0.07676635 0.06460808 -0.052285306 0.09072379 0.034111742 0.11649532
-0.038469035 -0.005114797 0.038891524 -0.015562345 -0.008319814 0.11167161 -0.02147347 -0.018261729
0.069706246 -0.059548147 0.00076015666 0.13068053 -0.020410467 -0.0006490696 0.029350078 -0.13620776
-0.014526806 0.109521165 0.054274533 -0.04866114 0.04700892 0.112527676 -0.06245597 0.076040484
-0.025655454 0.12712523 -0.0011377583 -0.027544709 -0.02301259 0.08370745 0.124373265 0.10000469
0.0859625 0.11065037 0.12313125 -0.08235774 0.016758831 -0.044959366 -0.07259624 -0.06616119
0.13917342 0.0056835446 0.07118111 -0.030642206 0.110756874 0.14413762 0.09715579 0.13099954
0.1262382 -0.0375742 0.05442454 0.10093091 -0.08463982 0.15982166 -0.03316474 0.0586818
0.06751611 0.07904084 -0.060360573 0.029187283 -0.04426158 0.065346666 0.040548854 -0.0642852
0.03142467 -0.060222678 0.09440109 -0.016182624 0.08923662 0.09444279 0.069568574 -0.074932896
0.02737425 -0.08124406 0.025871245 0.09428863 0.02933113 0.025071112 0.049741413 -0.088153094
-0.0044637225 0.1166545 0.057350192 0.14214335 0.056378912 0.11111791 -0.014758594 0.12983154
-0.08879306 -0.08477217 0.026779866 0.009238978 -0.03413532 0.09487665 0.05070297 0.14631377
0.10704883 0.15239522 0.09868452 -0.051610313 0.040085275 0.054583445 0.051210426 -0.017928267
0.13342792 8.611694e-05 -0.024656806 -0.02495376 0.12000115 0.062430028 -0.047511484 0.07363405
0.12756032 -0.055958424 -0.07228985 0.0625466 -0.07157406 -0.012633269 0.059795994 0.06623551
0.060748104 0.069058985 0.05625067 0.11993779 -0.0030526237 0.047883768 -0.053734515 0.0147523265
-0.05708348 0.08367161 0.15236932 0.07938853 0.08454631 -0.060182538 0.14536211 0.06803825
0.076516934 -0.036994554 0.21964596 0.095895655 -0.011033293 -0.013119873 -0.05101291 0.06701634
0.06818082 -0.016847236 0.009631071 -0.04154131 -0.016522681 -0.0105941165 0.12919487 -0.011368766
0.112185694 0.04495679 0.088227026 0.014524536 0.13624848 -0.01661986 0.014408984 -0.099212475
0.05308041 0.18781771 0.015311953 -0.09339428 0.033861283 -0.055521242 -0.06886501 0.10130018
0.053334594 0.02499638 0.046520293 0.05483759 0.062252924 0.046195846 0.15066631 0.06809899
0.048882503 0.111235954 0.08676999 -0.03213214 0.09191723 -0.054415688 -0.04967766 0.12987636
-0.09698291 0.109283544 0.08879029 0.06729501 -0.01818407 -0.009564014 0.15368433 0.06854253
00000000: ae8a 013e bc18 ba3d 7aae c6bd e627 a23c
00000010: 448a d53d 7ea3 7bbd 74ce 36bd 3e60 d3bc
00000020: 5fed 6b3d a155 ad3b 0677 673c c3c7 233e
00000030: b9ba 323d fda4 c63d 1035 c83d d143 39bc
00000040: 1009 433d a9b5 ff3c 679d f53d 6bb3 923d
00000050: 79f6 223d 8677 debc 3a56 003e ae1d dabc
00000060: 5c43 cbbd 7332 cbbc b146 843d 74c8 3cbd
00000070: 7789 123d 3a59 3bbc a102 30bc 5e8b 073e
00000080: 5487 a5bd 2643 fc3c 14c9 a6bc bf2a 7e3d
00000090: 25f6 b63d ddde 00be fd6e a0bd ff6c ccbd
000000a0: 1606 2abd 4e92 213e 459b 90bd 2a98 f23c
000000b0: 67b9 b43d 2305 233e 0062 c33c fe60 b83d
000000c0: 5efc 013e 22be 153d a935 7b3d 5626 bb3d
000000d0: 9d23 75bd f31e de3d db0a a93d 3c1c 34bd
000000e0: bc91 dd3d c2f4 90bd ad37 9d3d 3e51 843d
000000f0: 1e29 56bd 65cd b93d c1b8 0b3d 1995 ee3d
00000100: b591 1dbd 079a a7bb b84c 1f3d 35f9 7ebc
00000110: d44f 08bc 16b4 e43d 21e9 afbc 9f99 95bc
00000120: 26c2 8e3d c2e8 73bd 4045 473a 1ed1 053e
00000130: da33 a7bc 5326 2aba 936f f03c 0c7a 0bbe
00000140: d701 6ebc a24c e03d f94e 5e3d e750 47bd
00000150: 6d8c 403d e974 e63d d5d1 7fbd 1dbb 9b3d
00000160: 632b d2bc 1e2d 023e d520 95ba 71a5 e1bc
00000170: e684 bcbc d06e ab3d 69b7 fe3d 42cf cc3d
00000180: 1b0d b03d a99c e23d 3d2c fc3d 2dab a8bd
00000190: d149 893c 5027 38bd 56ad 94bd 857f 87bd
000001a0: 7a83 0e3e 073d ba3b 67c7 913d 5d05 fbbc
000001b0: 80d4 e23d d098 133e 9df9 c63d be24 063e
000001c0: 9644 013e 68e7 19bd 44ec 5e3d ddb4 ce3d
000001d0: a457 adbd 4aa8 233e c0d7 07bd 545c 703d
000001e0: e345 8a3d 2ae0 a13d a63c 77bd 2b1a ef3c
000001f0: a14b 35bd 79d4 853d 8e16 263d f5a7 83bd
00000200: 28b7 003d 0eac 76bd 5c55 c13d 6c91 84bc
00000210: b0c1 b63d 396b c13d f879 8e3d 6b76 99bd
00000220: f73f e03c 4963 a6bd efef d33c 661a c13d
00000230: d747 f03c ef61 cd3c a7bd 4b3d 9c89 b4bd
00000240: 6b44 92bb 8ee8 ee3d 09e8 6a3d 078e 113e
00000250: 93ed 663d c991 e33d 08ce 71bc 8ff2 043e
00000260: 23d9 b5bd 089d adbd 7361 db3c 155f 173c
00000270: 7ad1 0bbd b04e c23d ebad 4f3d 47d3 153e
00000280: 6b3c db3d 7e0d 1c3e 1c1b ca3d 5665 53bd
00000290: 7530 243d e492 5f3d 06c2 513d 4dde 92bc
000002a0: 54a1 083e ae99 b438 12fd c9bc d46b ccbc
000002b0: 2ac3 f53d a1b6 7f3d 679b 42bd 73cd 963d
000002c0: 2c9f 023e a934 65bd b30c 94bd 6f18 803d
000002d0: 6c95 92bd c5fb 4ebc a5ec 743d 7ca6 873d
000002e0: 01d3 783d cc6e 8d3d 1a67 663d f2a1 f53d
000002f0: 870e 48bb c521 443d b918 5cbd beb3 713c
00000300: 5ed0 69bd 055c ab3d b406 1c3e 7496 a23d
00000310: 9e26 ad3d f781 76bd ced9 143e a357 8b3d
00000320: e9b4 9c3d 9a87 17bd dfea 603e f164 c43d
00000330: fcc4 34bc bcf4 56bc eaf2 50bd dd3f 893d
00000340: 63a2 8b3d 3703 8abc a4cb 1d3c 3827 2abd
00000350: 935a 87bc f292 2dbc a94b 043e 1044 3abc
00000360: 9dc1 e53d 9c24 383d 5fb0 b43d 52f8 6d3c
00000370: b984 0b3e 5f26 88bc a913 6c3c e92f cbbd
00000380: d86a 593d 4953 403e fcde 7a3c 8045 bfbd
00000390: 21b2 0a3d 3e6a 63bd 1909 8dbd 7876 cf3d
000003a0: 6075 5a3d 35c5 cc3c 108c 3e3d 619d 603d
000003b0: ecfc 7e3d db37 3d3d 4548 1a3e 7c77 8b3d
000003c0: 0539 483d adcf e33d 77b4 b13d fe9c 03bd
000003d0: 1a3f bc3d fce2 5ebd cd7a 4bbd 4ffe 043e
000003e0: fa9e c6bd 0dd0 df3d afd7 b53d f7d1 893d
000003f0: c2f6 94bc 62b2 1cbc 6d5f 1d3e 0760 8c3d

model.2.bias f4 [128]
0.0135752885 -0.023811856 0.07882478 -0.039058253 0.03879071 0.06303671 -0.09457491 0.07545367
-0.04194844 -0.04636724 -0.09416657 0.22089167 0.0081496155 -0.00081419677 0.011728763 0.06056651
-0.045014385 0.1094669 -0.021672253 0.13722591 0.021624973 0.048492912 -0.17878322 -0.022551961
-0.045065146 0.14423862 0.14075074 -0.059030514 -0.06140312 -0.013135974 0.12178498 -0.024612831
0.036487274 -0.21374935 0.12091618 0.219174 -0.037436433 -0.18603073 -0.11113583 -0.017777195
-0.051818006 -0.23459962 -0.10658693 0.06321631 0.20175584 -0.094834685 -0.0018268496 -0.010927147
-0.054217022 0.16307923 -0.020018704 -0.10162293 -0.1302164 0.12241764 0.04017676 0.19090381
-0.10142998 -0.022854961 0.11267167 0.042417906 0.067670576 0.025007145 0.07771626 -0.2349586
0.0067510973 -0.18351273 0.14445025 0.030119225 0.08565956 0.009631856 -0.25853315 0.05565862
-0.17455524 0.1648268 0.10559798 0.08479005 -0.19638167 -0.14496337 -0.015621593 0.10463246
-0.08243999 -0.048493035 0.22168443 -0.00778042 0.091889344 0.04847421 -0.07640686 -0.03526019
0.011606755 8.537565e-06 -0.098980315 -0.15680206 -0.095338106 0.004936618 0.100025326 -0.074027136
-0.024218379 -0.056316722 0.018125115 0.050301068 0.113780364 -0.08919684 0.0019829685 -0.102740824
0.29067886 -0.12458767 0.19499001 -0.15550292 0.109290145 0.038671702 -0.026863618 0.035861135
-0.17460606 0.02363919 0.08218898 0.09195138 -0.09059592 0.0107843755 0.15698247 -0.03666325
-0.087146066 -0.020627372 0.052492056 -0.045706898 -0.14770886 0.19162424 0.2829867 0.00021024019
00000000: e36a 5e3c 1511 c3bc e36e a13d 8cfb 1fbd
00000010: 02e3 1e3d 6419 813d 7eb0 c1bd 7487 9a3d
00000020: 21d2 2bbd 93eb 3dbd 67da c0bd 6d31 623e
00000030: f785 053c d26f 55ba ff29 403c 9714 783d
00000040: 0161 38bd 2f30 e03d 028a b1bc f384 0c3e
00000050: db26 b13c 81a0 463d f312 37be e4be b8bc
00000060: 3b96 38bd 4ab3 133e f620 103e fbc9 71bd
00000070: d781 7bbd 4538 57bc 676a f93d d9a0 c9bc
00000080: ae73 153d 1ce1 5abe e7a2 f73d 266f 603e
00000090: f256 19bd d77e 3ebe 2f9b e3bd 7ba1 91bc
000000a0: 1e3f 54bd e23a 70be 404a dabd 8e77 813d
000000b0: 1599 4e3e b038 c2bd e772 efba c707 33bc
000000c0: ab12 5ebd 3efe 263e 44fe a3bc af1f d0bd
000000d0: 7357 05be 1ab6 fa3d 6390 243d 4a7c 433e
000000e0: 85ba cfbd 543a bbbc 68c0 e63d 66be 2d3d
000000f0: df96 8a3d c9db cc3c b429 9f3d fd98 70be
00000100: 4f38 dd3b c3ea 3bbe c4ea 133e 98bc f63c
00000110: 486e af3d efce 1d3c 755e 84be 4bfa 633d
00000120: 9cbe 32be 5bc8 283e c143 d83d 68a6 ad3d
00000130: 4718 49be 4771 14be b6f1 7fbc 8b49 d63d
00000140: 4cd6 a8bd a2a0 46bd 3e01 633e e5f2 febb
00000150: 7b30 bc3d e58c 463d 337b 9cbd fd6c 10bd
00000160: 422a 3e3c 903c 0f37 31b6 cabd b890 20be
00000170: a040 c3bd 5ac3 a13b 14da cc3d 8a9b 97bd
00000180: 9f65 c6bc 5dac 66bd 1f7b 943c 7e08 4e3d
00000190: ae05 e93d d5ac b6bd b1f4 013b c869 d2bd
000001a0: dcd3 943e d227 ffbd 76ab 473e 283c 1fbe
000001b0: 83d3 df3d 3866 1e3d 1711 dcbc 20e3 123d
000001c0: eecb 32be f9a6 c13c b252 a83d 0151 bc3d
000001d0: 5b8a b9bd f3b0 303c 03c0 203e 342c 16bd
000001e0: a379 b2bd bcfa a8bc e901 573d 2837 3bbd
000001f0: fe40 17be 2539 443e a2e3 903e ec73 5c39

model.4.weight f4 [7, 128]
-0.069893286 0.04093348 0.058377154 0.011509084 -0.016164897 0.032497972 -0.00061457197 -0.0141306585
-0.007920034 -0.032982342 0.027776724 -0.09777397 0.027456325 -0.031865615 0.004747653 -0.039581295
-0.019321054 -0.0420726 -0.025318608 -0.00891019 -0.08936435 0.041837886 -0.0036965476 0.030412411
0.01880558 0.06496674 -0.01796607 -0.060573243 0.037642512 -0.067374475 -0.029146876 0.037409026
0.038516913 0.04580157 0.039557185 0.18477835 0.099292874 0.065093175 0.01725224 -0.0119797075
-0.06978355 0.04382921 -0.016484026 0.018453315 0.066374466 0.037221257 -0.015214793 0.0073245014
0.021591745 -0.06468527 -0.020737754 -0.0007685225 0.11113509 0.22416279 -0.0040459605 -0.09469596
0.0035420472 -0.055830814 -0.09857803 -0.09324817 0.039935704 0.063129276 0.030526109 0.05170386
0.009706591 0.023445811 -0.096035466 0.0028601629 0.041681975 -0.025706364 0.04865239 -0.08441126
-0.03420579 0.055747136 -0.01775621 -0.062392127 0.06117716 0.088889755 0.03453409 0.02249484
0.0070001725 0.16339484 -0.09562265 -0.03865573 -0.032605838 -0.043753754 -0.03540308 0.00570762
-0.038200993 -0.023612436 -0.0016088255 0.012538645 -0.00011753608 0.016015405 -0.06870635 -0.04292555
-0.055367675 0.07934079 0.16736534 0.07605745 -0.009764828 -0.016066816 0.0019293905 0.006818389
-0.06711991 0.030368233 0.0027606417 0.013079837 0.021417636 -0.08464824 -0.050168518 -0.04341679
0.029653272 -0.019035818 -0.041944373 -0.047420777 0.040693942 0.022753943 -0.028454907 -0.095231004
0.0033451 -0.0075156777 -0.06000521 0.1035048 0.0059614745 -0.16488953 0.12256653 -0.037460838
0.014305147 -0.07697049 -0.039900266 -0.021450048 0.04984802 -0.042278312 -0.033504985 -0.045385092
0.0025864996 0.02098711 -0.009556016 0.058275323 0.10793521 0.031506725 0.054898113 -0.055651154
0.021272454 0.032823943 -0.007320348 0.054433383 0.063846536 0.14142421 0.15450002 -0.008659312
0.092401475 0.0794703 0.028287357 0.0057335044 0.07905516 -0.014815348 -0.0337509 -0.058454134
0.031048043 0.29519325 -0.041780412 -0.049687155 0.012833576 0.22554716 -0.06790207 0.10563948
-0.04244911 0.2652001 0.21971647 -0.07178638 -0.007814957 0.17999941 -0.009679589 0.04064501
-0.008961395 -0.0036158937 -0.14552435 0.085730344 0.020947032 -0.032034986 -0.05111393 -0.10607904
-0.036308065 0.09562955 -0.121911615 0.09169888 0.0742662 -0.0406836 -0.07492865 0.14623931
-0.08643695 0.09377086 -0.1126521 0.053835727 -0.014550856 0.07002821 0.101822205 -0.050867368
0.09392752 -0.027287757 0.009442406 -0.013166544 0.30887228 0.24834998 0.012757077 0.07464053
-0.05040888 0.107398406 -0.031105503 0.033429798 -0.04677717 0.055136424 0.10484171 0.03749441
-0.027461296 -0.03197642 -0.025178105 -0.0029289494 0.08893736 -0.0501018 0.0044530523 -0.014111942
0.2489567 0.07607878 0.06670082 -0.11908309 0.050981015 -0.10174892 0.015913205 0.05375376
-0.10216311 0.22884254 0.0032564015 0.009378233 0.08534096 -0.0424029 0.17023405 0.016463635
0.26167306 0.00095855526 -0.078588665 -0.023111727 -0.038758647 0.08768185 -0.07097233 0.04748884
0.099643596 -0.037832003 -0.025945941 0.041457463 0.30156538 -0.01381147 0.15905286 0.047654573
00000000: 3624 8fbd dda9 273d e21c 6f3d 9990 3c3c
00000010: 3f6c 84bc 981c 053d 3a1b 21ba 4784 67bc
00000020: 08c3 01bc 7e18 07bd 038c e33c b83d c8bd
00000030: 16ec e03c 8585 02bd 3392 9b3b ff1f 22bd
00000040: 3047 9ebc 5254 2cbd f868 cfbc 0cfc 11bc
00000050: a804 b7bd 345e 2b3d c741 72bb 7323 f93c
00000060: 290e 9a3c 480d 853d 942d 93bc a61b 78bd
00000070: 092f 1a3d a1fb 89bd 6ec5 eebc 353a 193d
00000080: e9c3 1d3d 6d9a 3b3d b706 223d 8936 3d3e
00000090: 105a cb3d 924f 853d 9254 8d3c 8946 44bc
000000a0: aeea 8ebd 4286 333d 8209 87bc 682b 973c
000000b0: 56ef 873d 5175 183d 7847 79bc 5f02 f03b
000000c0: 2ce1 b03c b679 84bd 39e2 a9bc ac76 49ba
000000d0: cb9a e33d ee8a 653e fa93 84bb f5ef c1bd
000000e0: b121 683b daae 64bd 47e3 c9bd e6f8 bebd
000000f0: 9f93 233d ec49 813d e411 fa3c 6dc7 533d
00000100: 6508 1f3c 6e11 c03c 3eae c4bd 9271 3b3b
00000110: b8ba 2a3d 2796 d2bc ba47 473d d0df acbd
00000120: 5f1b 0cbd 1c57 643d 7975 91bc e38e 7fbd
00000130: e794 7a3d d50b b63d 9e73 0d3d 1947 b83c
00000140: b461 e53b fa50 273e cfd5 c3bd 7955 1ebd
00000150: b38d 05bd 2337 33bd d202 11bd fd06 bb3b
00000160: a578 1cbd de6e c1bc 3adf d2ba e46e 4d3c
00000170: b47d f6b8 bd32 833c eab5 8cbd b4d2 2fbd
00000180: 37c9 62bd 6d7d a23d d261 2b3e 02c4 9b3d
00000190: a8fc 1fbc 8e9e 83bc 9ae3 fc3a cb6c df3b
000001a0: 2a76 89bd cdc6 f83c e2eb 343b d04c 563c
000001b0: 0a74 af3c 0e5c adbd 817d 4dbd ced5 31bd
000001c0: 6beb f23c 01f1 9bbc ddcd 2bbd 4a3c 42bd
000001d0: b1ae 263d 7a66 ba3c 441a e9bc 7908 c3bd
000001e0: 7739 5b3b 1346 f6bb 06c8 75bd 53fa d33d
000001f0: 7958 c33b cdd8 28be 2904 fb3d 8970 19bd
00000200: 2360 6a3c b4a2 9dbd 766e 23bd 03b8 afbc
00000210: 702d 4c3d 062c 2dbd 863c 09bd b8e5 39bd
00000220: 4382 293b 29ed ab3c d690 1cbc 1bb2 6e3d
00000230: 230d dd3d 320d 013d d8dc 603d 77f2 63bd
00000240: 9243 ae3c 6672 063d 88df efbb 8af5 5e3d
00000250: f9c1 823d 82d1 103e 4135 1e3e c9df 0dbc
00000260: fc3c bd3d 53c1 a23d e3ba e73c 1fe0 bb3b
00000270: ace7 a13d 13bc 72bc 623e 0abd 9a6d 6fbd
00000280: 7758 fe3c 9223 973e f021 2bbd c284 4bbd
00000290: eb43 523c d6f5 663e 3e10 8bbd 8359 d83d
000002a0: 1edf 2dbd 4fc8 873e 5bfd 603e bd04 93bd
000002b0: 4e0a 00bc c451 383e 2497 1ebc 627b 263d
000002c0: d1d2 12bc a1f8 6cbb 5604 15be 6493 af3d
000002d0: 1c99 ab3c 1e37 03bd d75c 51bd f83f d9bd
000002e0: c4b7 14bd 6dd9 c33d ccac f9bd 9fcc bb3d
000002f0: e118 983d d9a3 26bd 3174 99bd c2bf 153e
00000300: db05 b1bd f00a c03d 25b6 e6bd da82 5c3d
00000310: b766 6ebc f36a 8f3d 2988 d03d 4d5a 50bd
00000320: 125d c03d 938a dfbc 52b4 1a3c 7db8 57bc
00000330: 8224 9e3e 754f 7e3e 0f03 513c 22dd 983d
00000340: 8b79 4ebd b2f3 db3d f8d0 febc afed 083d
00000350: 6b99 3fbd bbd6 613d 40b7 d63d bd93 193d
00000360: 83f6 e0bc b5f9 02bd 5042 cebc 9ef3 3fbb
00000370: ca24 b63d 8c37 4dbd e9ea 913b c635 67bc
00000380: 81ee 7e3e 31cf 9b3d 719a 883d d6e1 f3bd
00000390: 78d1 503d bd61 d0bd 695c 823c e72c 5c3d
000003a0: e53a d1bd b355 6a3e 5a69 553b 29a7 193c
000003b0: 3ec7 ae3d aaae 2dbd d651 2e3e bfde 863c
000003c0: 03fa 853e 8e47 7b3a 18f3 a0bd ce54 bdbc
000003d0: 63c1 1ebd 8b92 b33d f159 91bd a883 423d
000003e0: f111 cc3d bbf5 1abd 958c d4bc 4dcf 293d
000003f0: c766 9a3e 8149 62bc c1de 223e 7131 433d

model.4.bias f4 [7]
-0.07841492 -0.060506124 0.17190845 0.1588204 0.028873902 0.010190833 0.123395
00000000: 0098 a0bd 45d5 77bd c508 303e d1a1 223e
00000010: f688 ec3c 74f7 263c 85b6 fc3d
